data.pth (torch, 6641 bytes, 6 tensors)

l1.weight f4 [8, 68]
0	0x3ef7eb04	0.4842149
1	0xbee7259b	-0.45145878
2	0xbd9506b0	-0.07276666
3	0x3ea41160	0.32044506
4	0x3eb3dcdb	0.35129437
5	0xbf160024	-0.58593965
6	0xbc8f0dd1	-0.017462643
7	0xbe32679e	-0.1742234
8	0x3e4d1e49	0.20031084
9	0xbe930699	-0.2871597
10	0x3f14487e	0.57923114
11	0xbeb2665a	-0.34843713
12	0x3eca6057	0.39526626
13	0x3ee58039	0.4482439
14	0x3de68c57	0.112572365
15	0x3f094ad6	0.53629816
16	0xbf3a7bf9	-0.7284542
17	0x3ed9d638	0.42546248
18	0x3f075fd6	0.5288061
19	0x3e0a3231	0.13495709
20	0xbe5a8470	-0.21339583
21	0x3ec86297	0.39137718
22	0x3f0005ca	0.50008833
23	0xbf1d7079	-0.61499745
24	0x3e9611e9	0.2931054
25	0x3f330aed	0.69938546
26	0xbeb6b068	-0.35681462
27	0x3f068fb5	0.5256303
28	0x3f425417	0.7590956
29	0x3f105b37	0.5638918
30	0x3ea2ae12	0.3177343
31	0x3c291742	0.0103204865
32	0x3f0d8dd5	0.55294544
33	0x3f86d0bc	1.0532451
34	0xbe8083c4	-0.2510053
35	0x3e3b2cfa	0.18278876
36	0xbebb09cd	-0.36530915
37	0xbebe81f8	-0.37208533
38	0xbe0c639e	-0.13709876
39	0x3f20c03c	0.62793326
40	0x3c89c05d	0.016815359
41	0xbe617cce	-0.22020265
42	0x3d87b13b	0.06625601
43	0xbdbe8af3	-0.09303846
44	0xbeb7e66b	-0.35917982
45	0x3ebdc506	0.3706438
46	0x3ed6f609	0.41984585
47	0x3e5c9c45	0.21543987
48	0x3d9a885d	0.075455405
49	0x3db0b5f9	0.086284585
50	0x3f1be113	0.6089031
51	0x3f0c4e58	0.54807043
52	0xbe7f7ed7	-0.2495073
53	0x3f130d51	0.57442194
54	0x3f099c4a	0.53754103
55	0xbe4f5b1a	-0.20249596
56	0x3f11639c	0.56792617
57	0xbddb3e27	-0.10705214
58	0xbedc8303	-0.43068704
59	0xbec47558	-0.38370776
60	0x3ea3044d	0.3183922
61	0x3ef8b1d5	0.48573175
62	0x3d6499f6	0.05581089
63	0x3eb6b6ee	0.3568644
64	0x3ecfe60c	0.406052
65	0x3e89a127	0.26880762
66	0xbd5ab302	-0.05339337
67	0x3cdcf4a4	0.026972122
68	0x3ee06edf	0.43834588
69	0xbd815aff	-0.06316184
70	0xbeef7bdf	-0.46774194
71	0x3f272348	0.6528821
72	0x3ecb5aa9	0.39717606
73	0xbf6430ed	-0.89137155
74	0x3dc681e1	0.09692741
75	0xbde77e03	-0.11303332
76	0xbea14a5a	-0.31502038
77	0xbf86c1de	-1.0527914
78	0xbeccf937	-0.40033886
79	0xbdef80cb	-0.11694487
80	0xbe0a6f7d	-0.13519092
81	0x3f341f45	0.70360214
82	0x3e26390a	0.16232696
83	0xbe5db44b	-0.21650808
84	0xbc91cb7c	-0.017797224
85	0x3dee65a2	0.11640479
86	0xbea6c535	-0.32572332
87	0x3e24a4bc	0.16078466
88	0x3eb7774b	0.358332
89	0xbe65c9a5	-0.22440203
90	0x3f1c587f	0.61072534
91	0xbf5e0e8b	-0.8674094
92	0x3e236ae2	0.15958741
93	0x3f3b1154	0.73073316
94	0x3f1f65b5	0.6226457
95	0x3f495efc	0.7866056
96	0x3f46c34e	0.7764176
97	0x3e741bc3	0.23838715
98	0xbdf318fd	-0.118700005
99	0x3dadbbae	0.08483063
100	0x3e963882	0.29339987
101	0xbf889090	-1.0669117
102	0x3ed21ffc	0.41040027
103	0x3e572e20	0.21013689
104	0x3e2ce2b2	0.16883352
105	0xbf395c6b	-0.72406644
106	0x3f2d440c	0.67681956
107	0xbe515f3a	-0.20446482
108	0x3f17c65f	0.59287065
109	0x3f3d156c	0.7386081
110	0xbebb919f	-0.36634538
111	0x3ec6ce9e	0.3882951
112	0x3f868de7	1.0512055
113	0xbe6f39a8	-0.23361838
114	0x3e5015a5	0.20320757
115	0xbebf3d26	-0.3735134
116	0xbd72a86a	-0.059242643
117	0xbdb92ac4	-0.0904136
118	0xbf0f35a2	-0.5594121
119	0xbe47cc02	-0.19511417
120	0xbf2bd508	-0.67121935
121	0x3e96f1ca	0.29481345
122	0xbe5da8dd	-0.21646447
123	0x3e867a05	0.2626497
124	0xbec453c7	-0.38345167
125	0x3ed01e67	0.40648195
126	0x3f89dfce	1.0771425
127	0x3f3a12cb	0.72684926
128	0xbde116c6	-0.10990672
129	0x3f18062d	0.59384423
130	0x3e0e767c	0.13912386
131	0xbe5bbdab	-0.21459071
132	0x3d80722f	0.06271779
133	0xbdf53924	-0.11973789
134	0xbbb6d1e9	-0.0055792225
135	0x3f03e2a6	0.51517713
136	0x3ee89580	0.4542656
137	0xbe99e7e7	-0.3005974
138	0xbea0b3bf	-0.31387135
139	0x3d866e35	0.06563989
140	0x3e8887d1	0.2666612
141	0xbefd39ec	-0.49458253
142	0xbe13e703	-0.14443593
143	0xbe97f207	-0.2967684
144	0xbee0517c	-0.43812168
145	0xbf338dbe	-0.70138156
146	0x3f4fb4d2	0.81135285
147	0xbdfa4b41	-0.12221385
148	0x3f137242	0.5759622
149	0x3e861283	0.26185998
150	0x3e51df7c	0.20495409
151	0xbdb66198	-0.08905333
152	0xbf11dd38	-0.5697818
153	0x3e7a588a	0.24447837
154	0xbe5eec6b	-0.21769874
155	0x3e524053	0.2053235
156	0xbd60acde	-0.05485236
157	0xbd65abd9	-0.05607209
158	0x3e782715	0.24233659
159	0xbefcc4cf	-0.49368903
160	0x3f167895	0.58777744
161	0x3edac309	0.42726925
162	0xbeb8ac64	-0.36069024
163	0x3ea9d9a1	0.3317385
164	0x3e925a0d	0.28584328
165	0x3eabce9d	0.3355607
166	0xbe7f7c1e	-0.2494969
167	0x3e514d56	0.20439658
168	0x3ed8cbe1	0.42343047
169	0x3f4e3009	0.80542046
170	0xbe097d88	-0.13426793
171	0x3e846304	0.25856793
172	0xbeb769db	-0.3582295
173	0xbeb23220	-0.34803867
174	0x3ea4fef2	0.32225758
175	0xbe7b6a82	-0.24552348
176	0xbdc36bad	-0.09542022
177	0x3e7447c1	0.23855497
178	0xbebb3b9b	-0.36568913
179	0xbe541af5	-0.20713408
180	0x3f089007	0.5334477
181	0xbe454c4e	-0.19267389
182	0x3f2fb641	0.6863747
183	0xbe6f7940	-0.23386097
184	0x3cfa1397	0.03052692
185	0xbe1a6d56	-0.15080771
186	0x3f6ec480	0.93268585
187	0x3f103f41	0.5634652
188	0xbe4e9211	-0.20172907
189	0x3ef251b3	0.47327957
190	0xbe24dc7c	-0.16099733
191	0xbe409012	-0.18804958
192	0xbe8098d5	-0.25116602
193	0xbd36d6f8	-0.044638604
194	0xbf0c5631	-0.5481902
195	0xbf0c0a92	-0.5470363
196	0x3e717089	0.23578085
197	0x3e90973d	0.28240386
198	0x3e835f27	0.25658533
199	0xbe1acc95	-0.15117104
200	0x3f12b796	0.5731138
201	0x3ec327cc	0.381163
202	0x3c95ad5b	0.018271139
203	0x3d608b0f	0.054820117
204	0xbeb09a05	-0.34492508
205	0x3e58222e	0.21106789
206	0x3c98e0d9	0.018661903
207	0x3f19b2df	0.6003856
208	0x3e98d119	0.2984703
209	0x3d91662d	0.070995666
210	0x3f0dc4b2	0.5537826
211	0x3d0205bb	0.031743746
212	0xbc77c0d6	-0.015121659
213	0xbf03ae21	-0.51437575
214	0xbe88bc82	-0.2670632
215	0x3e154732	0.1457794
216	0xbe05ab0e	-0.13053533
217	0x3f2c5dd1	0.6733065
218	0xbeb1f37a	-0.3475607
219	0xbec8f051	-0.39245847
220	0x3d17b836	0.03704091
221	0x3f3d5b11	0.7396708
222	0xbeb5a1bd	-0.3547496
223	0xbeb792cf	-0.35854194
224	0x3f148ddd	0.58028966
225	0xbeae77ab	-0.34075674
226	0x3ee87b40	0.45406532
227	0x3de04779	0.10951132
228	0x3e2c2877	0.16812311
229	0x3f5976c6	0.8494686
230	0xbe4d15dc	-0.2002787
231	0x3f27d9c8	0.6556668
232	0x3f633e78	0.88767195
233	0x3ee2709a	0.44226533
234	0xbeb4b0ed	-0.35291234
235	0xbeabd20b	-0.33558688
236	0x3e86a803	0.26300058
237	0xbf004303	-0.5010225
238	0x3f7ec958	0.99525976
239	0x3d1608f5	0.036629636
240	0x3f3e9ba8	0.7445626
241	0xbdb7dc26	-0.08977537
242	0xbe36850c	-0.17824191
243	0xbed3cd3f	-0.41367528
244	0xbdb0d62b	-0.08634599
245	0xbdb31739	-0.08744664
246	0xbdcb63b3	-0.099311255
247	0x3f49609a	0.7866303
248	0xbe303bad	-0.17210265
249	0xbe887986	-0.26655215
250	0xbd91edde	-0.07125448
251	0x3c522698	0.012826584
252	0x3ed8980e	0.4230351
253	0x3f0018b9	0.50037724
254	0xbeac9a13	-0.337113
255	0xbd947311	-0.0724851

l1.bias f4 [8]
0	0x3f1db3a2	0.6160222
1	0x3f64402e	0.8916043
2	0x3efce190	0.4939084
3	0x3f5c0a4e	0.85953224
4	0x3f9c9819	1.2233917
5	0x3f354119	0.70802456
6	0x3f8a4089	1.0800945
7	0x3f40fdf4	0.753875

l2.weight f4 [8, 8]
0	0xbe515f9f	-0.20446633
1	0x3d018c18	0.031627744
2	0xbd9705d0	-0.073741555
3	0x3cb63900	0.022243977
4	0xbdb24c94	-0.08706012
5	0xbba9ec40	-0.005185634
6	0xbe0bbd40	-0.13646412
7	0x3e1d158e	0.15340254
8	0x3fd63aa3	1.6736645
9	0x3e1ebb46	0.15501127
10	0x400330f4	2.0498629
11	0xbd5b6ebc	-0.0535724
12	0xbe83f5af	-0.2577338
13	0x3fe0223d	1.7510449
14	0xbef5c6f1	-0.48003343
15	0x3f6f5337	0.9348635
16	0xbed5b239	-0.41737536
17	0x400b7742	2.179154
18	0xbf2864bc	-0.6577871
19	0x3fe8347a	1.8141015
20	0x3f7f8b8c	0.99822307
21	0x3dfb0f80	0.12258816
22	0x3edbe9b4	0.4295174
23	0x3f083fc1	0.5322228
24	0x3e0dd13b	0.13849346
25	0xbf1af2f2	-0.60526955
26	0xbea4abd8	-0.32162356
27	0x3e05574c	0.13021582
28	0x3fdb957d	1.7154995
29	0x3ee4f230	0.44716024
30	0xbf7536b2	-0.95786583
31	0x3e1814ec	0.14851731
32	0x3e30201f	0.17199753
33	0xbf945811	-1.1589376
34	0xbf5d1b97	-0.86370224
35	0xbe35e985	-0.17764862
36	0x3f682172	0.90676033
37	0xbe8a4354	-0.27004492
38	0x40100a25	2.2506192
39	0x3f913dd7	1.1346997
40	0x3c3b8c40	0.011447012
41	0xbeaa119e	-0.33216566
42	0xbcafaaf0	-0.021443814
43	0x3e7d301e	0.24725387
44	0xbd8909ac	-0.06691298
45	0xbe50e14e	-0.20398447
46	0xbddf8112	-0.1091329
47	0x3d051618	0.032491773
48	0x3f881034	1.0629945
49	0xbc66dadb	-0.014090265
50	0xbf533ba2	-0.8251287
51	0x3f2aacb2	0.6666976
52	0xbf183900	-0.59461975
53	0x3f5eff06	0.87107885
54	0x3fe98ffa	1.8247063
55	0x3f96f550	1.1793613
56	0x3d553968	0.0520567
57	0x3f3fe966	0.7496551
58	0xbeb4bdb7	-0.3530099
59	0xbfb459ea	-1.408994
60	0x3fc1d1f3	1.5142196
61	0x3f40a06e	0.75244796
62	0x3d908766	0.07057075
63	0xbf82cddb	-1.0219072

l2.bias f4 [8]
0	0xbe76ba6f	-0.24094556
1	0xbe01e1f4	-0.1268385
2	0x3f04e529	0.5191217
3	0x3e8bca1b	0.27302632
4	0x3f3bfd6a	0.73433554
5	0xbe74ecd4	-0.23918468
6	0x3f06eed0	0.5270815
7	0x3f743b5d	0.9540308

l3.weight f4 [12, 8]
0	0xbdbc03ac	-0.09180388
1	0xbfd43b19	-1.6580535
2	0xbf09b589	-0.53792626
3	0x3e42ce7b	0.19024079
4	0x3f31aeb4	0.694072
5	0x3ea1b575	0.31583753
6	0xbe4263d0	-0.18983388
7	0x3ed96cf5	0.4246594
8	0xbe99375e	-0.29925054
9	0x3f5fb99c	0.8739259
10	0xbfaf46b3	-1.3693451
11	0xbf8f4d59	-1.119548
12	0xbe737fb7	-0.23779188
13	0x3e119db6	0.14220318
14	0x3e9e10fd	0.30872336
15	0xbf94152e	-1.1568964
16	0xbe701fd8	-0.23449647
17	0x3e887f85	0.2665979
18	0xbf87b977	-1.0603474
19	0xbf82268c	-1.0168014
20	0x3ef26397	0.47341606
21	0x3d5061a0	0.050874352
22	0x3f11f01a	0.5700699
23	0xbf70aa3e	-0.9400977
24	0x3c563ae0	0.01307556
25	0xbfb56117	-1.4170254
26	0x3e18ddaf	0.14928316
27	0x3f322921	0.6959401
28	0x3effded8	0.49974704
29	0xbe3747f3	-0.1789854
30	0xc01e958a	-2.4778771
31	0x3f104beb	0.5636584
32	0x3dbc3f88	0.09191805
33	0xbfb689b8	-1.4260778
34	0x3f35865c	0.7090814
35	0x3eb3a18c	0.35084188
36	0xbf6f32e0	-0.93437004
37	0x3e28cec2	0.16485122
38	0xbf2e09fe	-0.67983997
39	0xbed89295	-0.42299333
40	0xbea7c9fe	-0.32771295
41	0xbf84eaaa	-1.0384114
42	0x3df2d3e0	0.11856818
43	0xbfb52b00	-1.4153748
44	0x3f7db4b4	0.99103856
45	0x3eb3a2f5	0.35085264
46	0x3e9002b7	0.2812707
47	0xbff54dc8	-1.9164362
48	0x3d087508	0.033314735
49	0x3e09b2b1	0.13447072
50	0x3f15b62e	0.5848111
51	0xc01a2b0d	-2.4088776
52	0xbd9c67d5	-0.07636992
53	0x3e36af0e	0.17840216
54	0x3ea5207f	0.32251355
55	0xbfc4e657	-1.5382794
56	0xbe31a162	-0.17346719
57	0x3ecea2bf	0.4035854
58	0x3e83942b	0.2569898
59	0xbf1ae359	-0.60503155
60	0xbff962b7	-1.948325
61	0x3d46b410	0.048511565
62	0x3e859bb0	0.26095343
63	0xbf6ac772	-0.9171058
64	0xbe7b96aa	-0.24569193
65	0x3f00dba4	0.50335145
66	0xbf5ee7a5	-0.8707221
67	0x3f0d7b82	0.5526658
68	0xbf29ffda	-0.66406024
69	0x3e9a21b1	0.3010383
70	0xbf578c50	-0.84198475
71	0x3ec221f1	0.3791652
72	0x3eaefd65	0.341777
73	0xbd8a0e81	-0.06741048
74	0x3ed0c2eb	0.4077371
75	0xbd334246	-0.043764375
76	0xbfd6f4ce	-1.6793458
77	0x3e8f3fb5	0.27978292
78	0xbffcf188	-1.976121
79	0x3f397a11	0.72451884
80	0xbe91bbc2	-0.2846356
81	0xbcc34d0d	-0.023840452
82	0xbd9fe771	-0.07807816
83	0x3dce8c58	0.10085362
84	0x3e001e7e	0.12511632
85	0x3d5bb3e8	0.05363837
86	0xbe75af30	-0.2399261
87	0xbee68945	-0.45026603
88	0x3d943590	0.07236779
89	0xbf7db2b1	-0.99100786
90	0x3f21c08a	0.63184416
91	0xc00fa05f	-2.2441633
92	0xbf786dc7	-0.97042507
93	0xbd0f1ee8	-0.034941584
94	0x3e4a6b94	0.197676
95	0x3f4ca5bb	0.79940385

l3.bias f4 [12]
0	0x3eedefb5	0.46471944
1	0xbe166487	-0.14686786
2	0xbf2350a4	-0.6379492
3	0xbeaf2bb8	-0.34213042
4	0x3dbb753e	0.091532215
5	0xbb0f47b5	-0.002186281
6	0xbea48ce4	-0.3213874
7	0xbdaa057d	-0.08301828
8	0xbe471bb6	-0.19444165
9	0x3ee275cb	0.44230494
10	0xbddeb86a	-0.10875018
11	0x3f1589d3	0.5841343
