data.pth (torch, 12657 bytes, 6 tensors)

l1.weight f4 [8, 172]
000000 0d a4 16 40 78 3e 08 3f a8 c6 dd 3f 0b a9 38 40
       2.3537629 0.5322032 1.732625 2.8853176
000010 a2 c8 e7 3f 62 cd 4e 3f 07 d1 18 40 cd 80 a0 3f
       1.8108103 0.8078214 2.387758 1.2539307
000020 31 86 82 3f b8 54 11 40 97 08 3c 40 35 49 b2 3f
       1.0197202 2.2707958 2.9380243 1.3928591
000030 95 45 9f 3f 74 0c 2a 3f 82 ba ea 3e 20 8c 2a 3e
       1.244311 0.6642525 0.4584542 0.16655016
000040 12 75 0b 40 64 0e 64 3f a1 14 72 3f e9 ff 6c 3f
       2.1790204 0.8908446 0.9456273 0.9257799
000050 a3 60 5d 40 01 bb f4 3f 66 85 dd 3f ba 69 98 3f
       3.4590232 1.9119569 1.7306335 1.1907265
000060 06 c4 19 3e 5e da 05 40 fb 1a 39 40 ea 43 4a 3f
       0.15016183 2.091453 2.8922718 0.7900988
000070 9f fd 5e 40 56 59 ce 3f 55 37 3e 3f 0b a5 2f 40
       3.4842298 1.6121013 0.7430318 2.7444484
000080 65 1c de 3f f8 88 27 3e d7 40 98 3f 10 ea 0c 40
       1.7352415 0.16360843 1.1894788 2.201786
000090 ab 68 f0 3f 3a ea 67 3f 7a fb fe 3f 36 14 28 40
       1.8781942 0.90591776 1.9920495 2.6262336
0000a0 88 bf 5d 3f 44 7e 1a 3f 35 ef c6 3d 2c 5d 0a 3e
       0.8662038 0.60348916 0.09713594 0.13512105
0000b0 84 43 0e 40 9f c6 1e 40 d6 44 a4 be 65 c9 2c 40
       2.2228708 2.4808729 -0.32083768 2.6997921
0000c0 e2 38 a6 3f 72 2f 41 40 f2 5c cc 3f d6 60 0c 3f
       1.2986109 3.0185208 1.5965865 0.5483526
0000d0 ab 8f b2 3f 6d 4d 04 3f 18 b9 0a 40 94 96 f4 bd
       1.3950094 0.5168064 2.1675472 -0.11942783
0000e0 c4 00 07 3f e9 f2 90 40 06 65 4d 40 04 73 51 3f
       0.52735543 4.529652 3.209291 0.81816125
0000f0 d8 bc fd 3f 1c de 36 40 c8 4e 1d 40 8e 0c a7 40
       1.9823256 2.8573065 2.4579334 5.2202826
000100 67 e0 c4 40 3a e0 a0 40 0e 68 48 be e5 fe 0c 40
       6.152393 5.0273714 -0.19570944 2.2030575
000110 a2 e7 b0 3f f3 76 5c 3f e1 39 ea 3f 00 f5 53 3f
       1.3820689 0.86119 1.8298913 0.82795715
000120 b1 61 ac 3f 5d 74 03 3f b5 e6 0b 40 5f 8c be 3e
       1.3467313 0.5134943 2.1859562 0.3721647
000130 f0 43 89 3f 1e 00 79 3f 9c 5a d9 3f 19 af 72 3e
       1.0723858 0.97265804 1.6980777 0.23699607
000140 d9 b6 35 bf ff 35 2b 40 94 a9 b5 3f 78 06 aa 3e
       -0.7098213 2.6751707 1.4192376 0.3320806
000150 99 64 0f 40 62 64 08 40 e1 6a d4 3f 68 27 50 3f
       2.240515 2.1311269 1.6595117 0.8131013
000160 69 ed 91 3f 6c b8 1d 40 56 37 b3 3f a8 19 17 40
       1.1400577 2.4643812 1.4001262 2.360941
000170 88 2c ee 3e 99 1e 15 40 57 cc 1d 40 0e d1 3f 40
       0.4651835 2.3299925 2.465597 2.9971347
000180 cc fd cc 3f e9 f5 20 40 9a 7e 26 3f f7 7d a4 3f
       1.6014953 2.5150092 0.6503693 1.2850941
000190 16 26 25 40 94 f2 7e 3f 14 db d3 3f 18 93 06 40
       2.5804496 0.99588895 1.6551232 2.102728
0001a0 50 09 51 3f 08 82 61 40 b9 81 bd 3f ef 27 03 3f
       0.81654835 3.5235615 1.4805213 0.5123281
0001b0 62 36 c0 3f 00 c4 c4 3e 45 00 fe 3f 22 26 89 be
       1.5016596 0.38430786 1.9843832 -0.26786906
0001c0 61 bb 1f 40 ae 24 53 40 9e a0 2f 40 6a 7c 20 40
       2.4958117 3.2991138 2.7441783 2.5075936
0001d0 66 42 d8 3e a8 16 62 3e 6e 5d 23 40 0d 1d cc 3f
       0.42238158 0.22078955 2.5525775 1.5946366
0001e0 17 82 53 3f b9 90 92 3e 78 ed 03 3f 9b ff 31 bd
       0.82620376 0.2862604 0.51534224 -0.043456655
0001f0 dc d2 e1 3f d1 c7 82 3e 4c ac d0 3e df 14 93 3f
       1.7642474 0.25543073 0.40756452 1.1490744
000200 85 c0 18 40 87 34 2e 40 5f 8b 3e 40 f2 c4 ab 3f
       2.3867505 2.721956 2.9772565 1.3419478
000210 b9 bc e7 3f 0b 9d f2 3f e0 39 15 40 9f bc ae 40
       1.8104469 1.8954176 2.3316574 5.460525
000220 b0 36 b8 3f 0f cd f1 3f 18 09 c5 3f 2c 1f c6 3e
       1.4391689 1.8890704 1.53934 0.38695657
000230 0d 1f 19 3f 49 ed da 3f e1 15 e2 3f a1 ec e5 3f
       0.59813005 1.7103664 1.7662927 1.7962838
000240 db ef d9 3e 93 e7 8a 3f 0f 5c 91 3f 97 c4 ec 3f
       0.42565808 1.0851921 1.1356219 1.8497494
000250 80 c4 b3 3f fb 62 b0 3f cb 14 e6 3f 9a 55 11 3f
       1.4044342 1.3780206 1.7975096 0.5677124
000260 d8 4a 94 40 03 3b ef 3e 2b 11 45 3f c9 da 24 40
       4.634136 0.4672471 0.7697932 2.5758536
000270 63 71 6c 3e f7 13 21 40 78 af d1 3d ed 8e 75 3f
       0.23090129 2.5168436 0.10238546 0.9592121
000280 83 34 29 40 53 dd 0d 40 6d 4b 06 3f 5c 51 22 40
       2.64383 2.2166336 0.5245884 2.5362158
000290 73 e0 41 3f 21 f1 94 3f 97 5f 49 3f cd b8 21 3f
       0.7573311 1.1636087 0.78661484 0.6317261
0002a0 f7 e4 d3 3f f1 4f 38 40 9b ae 09 3f 08 96 08 40
       1.655425 2.8798792 0.5378205 2.1341572
0002b0 d8 82 be 3f cb d1 1b 3f b2 58 51 40 93 6e 99 40
       1.488368 0.60866994 3.2710385 4.794748
0002c0 46 81 02 40 79 e4 f6 3f 0f 9b 6e 40 cc 72 ab 40
       2.0391402 1.9288474 3.728214 5.3577633
0002d0 5c 4b 14 40 a0 11 37 40 4c cc 3f 40 47 08 10 40
       2.3170996 2.8604507 2.9968443 2.2505052
0002e0 cd a0 2e 40 1b fe 06 40 0b 5a 7f 3f 9d 43 0c 3f
       2.7285645 2.1092594 0.9974677 0.5479067
0002f0 f2 65 d7 3e b6 ba 19 40 e0 05 90 3f cd 2d 8d 3f
       0.42069966 2.402021 1.1251793 1.1029602
000300 e3 4a f8 40 bf 37 04 40 09 77 2a 40 fb 55 38 40
       7.7591414 2.0659025 2.6635153 2.8802478
000310 34 00 81 3f 2e ee 78 40 4b 4e 8e 40 fe 75 ec 3f
       1.0078187 3.8895373 4.4470572 1.8473508
000320 34 8f 24 40 91 f3 e2 3f 9f a3 00 40 d1 90 3d 40
       2.5712404 1.773058 2.0099866 2.961964
000330 60 7a 50 40 22 65 b4 3f e5 d9 58 40 65 ba 44 40
       3.2574692 1.4093363 3.3882992 3.0738766
000340 e2 f6 d9 3f 77 b9 7d 3f b9 27 4e 40 0f b8 6f 40
       1.7028468 0.9911112 3.2211745 3.745609
000350 96 f0 10 40 00 5b 13 40 cb ba 91 3f 90 9a dc 3f
       2.2646842 2.3024292 1.138513 1.7234669
000360 8c d5 26 40 f5 0d b2 3f d2 e0 94 bc dd 54 0c 40
       2.6067839 1.3910509 -0.018173609 2.1926796
000370 ff b1 82 3f e9 37 4e 40 9f 3b 1e 40 b9 59 85 3f
       1.021057 3.2221625 2.472389 1.0418006
000380 4b bb 0d 40 dc 2a 52 3e f4 f8 36 40 4f 8f 2b 3f
       2.2145565 0.20524162 2.858945 0.67015547
000390 eb fe c7 3f 51 ea d8 40 ba 71 f7 40 07 07 39 40
       1.562467 6.778603 7.7326326 2.891054
0003a0 29 7d 4a 40 30 dc 01 40 a7 c3 d3 3f 74 7e 05 41
       3.1638892 2.0290642 1.6544083 8.343372
0003b0 9c d9 05 41 65 d8 07 41 c8 a3 74 40 60 3e 38 40
       8.365627 8.490331 3.8224964 2.878807
0003c0 39 74 60 40 6c 2f 2b 3f 6d bd 5f 40 cc 73 4a 3f
       3.5070937 0.66869235 3.4959366 0.7908294
0003d0 04 0b c3 3f 02 5c 86 3f 17 f1 6d 3f 46 74 92 40
       1.5237737 1.0496829 0.92946 4.5766935
0003e0 e4 76 8d 40 88 9e 01 3f f3 8d 05 40 33 aa 44 40
       4.420763 0.50632524 2.086789 3.0728881
0003f0 65 9a 58 40 0c fc 11 40 f2 d1 a2 40 76 3e 03 40
       3.3844235 2.2810087 5.088128 2.0506873

l1.bias f4 [8]
000000 97 10 ad 3f e0 26 ef 3f 15 28 ac 3f 3f 65 01 40
       1.3520688 1.8683739 1.3449732 2.0218046
000010 e8 a7 08 40 3c b9 49 40 0a 39 c9 3f 77 aa e7 3f
       2.1352482 3.1519308 1.5720532 1.8098897

l2.weight f4 [8, 8]
000000 ec 51 55 40 cf 5d 28 40 f8 bd 63 40 7f 1f 1e 3e
       3.333125 2.6307256 3.5584698 0.15441702
000010 1a cc 0c 40 50 e9 a3 3f 03 d3 0e 40 58 d3 9e bf
       2.1999574 1.2805576 2.2316291 -1.2408247
000020 57 e7 28 40 4d ba 96 be da 95 da 3e 80 1d 19 40
       2.6391199 -0.2943901 0.42692453 2.3924255
000030 fd 79 10 3f af 33 31 40 18 cc 06 3e 8a 30 7a bf
       0.5643614 2.7687795 0.13163793 -0.97730315
000040 bf 5a 9a 3f 25 50 78 be c7 79 83 bd b4 ca 50 40
       1.2058944 -0.24249323 -0.064197116 3.262372
000050 61 ed 22 40 af 97 3e 3f 71 9a 2c 40 6e a2 35 40
       2.5457385 0.744502 2.6969264 2.838039
000060 a5 de 89 bf 95 a9 a5 3f 31 82 ac 3f 66 bd c0 3f
       -1.0771071 1.2942377 1.3477231 1.50578
000070 d0 5a 33 40 af 78 bb 3f b7 db b8 3e 68 66 ea 3e
       2.8024178 1.4646205 0.3610513 0.45781255
000080 ac 88 6c bd 08 41 09 40 b9 5b 6e 3f 60 a9 bc 3e
       -0.057747528 2.1445942 0.9310871 0.36847973
000090 29 de 1f 40 e0 75 f1 3f 1d 02 10 c0 e1 80 70 3f
       2.4979346 1.8864098 -2.250129 0.93946654
0000a0 57 b3 ac be 02 de 15 40 6d 50 be bf 81 b5 5a bf
       -0.33730575 2.3416753 -1.4868294 -0.85433203
0000b0 44 75 1f 40 42 e6 3b 40 05 f2 de 3f de e7 15 40
       2.4915323 2.9359288 1.7417608 2.342277
0000c0 52 56 43 40 6a 33 4f 3e af e3 6e 3f 39 1d 97 bf
       3.0521436 0.20234457 0.9331617 -1.1805793
0000d0 8f a2 77 3f 78 c3 2d 40 9f ce 91 3e fd 4f f0 3f
       0.9673242 2.7150555 0.28477952 1.877441
0000e0 d0 cc 6b be fb 47 60 40 9a 14 85 3f 03 ac 26 40
       -0.23027349 3.5043933 1.0396912 2.6042488
0000f0 17 f0 87 bf 5c 13 3d 40 f4 f9 04 3f 78 eb df 3f
       -1.0620145 2.9543066 0.519439 1.7493734

l2.bias f4 [8]
000000 6a 0d 8a 3e 83 ac 13 3f 13 8b 90 3f 79 6c 3d 3f
       0.2696336 0.57685107 1.1292442 0.7399364
000010 67 52 58 3f 2d ae 0a 3f dc 5f 77 3f f2 b4 a9 3f
       0.84500736 0.5417202 0.96630645 1.3258345

l3.weight f4 [34, 8]
000000 2c 7a 9e 3c 03 09 cc 3d 1a 98 9d bf 20 c2 c0 bf
       0.019345365 0.09962656 -1.2312043 -1.5059242
000010 03 3d 94 be da 57 4b c0 48 6a 4d bf 74 61 91 be
       -0.28952798 -3.177237 -0.802403 -0.28394663
000020 c9 64 f2 bf 83 60 06 3f 2f ad 41 be e9 33 a6 3a
       -1.8937007 0.52491015 -0.1891372 0.0012680265
000030 5b 0d 1a 3e ea 91 36 c0 bc 8d 2d c0 96 92 10 3e
       0.15044157 -2.852656 -2.7117758 0.14118418
000040 96 df 57 c0 97 fe af 3e 2c f4 11 bd ef ea b3 bf
       -3.3730216 0.34373924 -0.03563325 -1.4056071
000050 d2 65 66 bf 61 ef e4 bd 4d e8 fa bf 50 95 06 3f
       -0.89999115 -0.111784704 -1.9602143 0.5257158
000060 9e 08 a7 be 35 3d eb be 05 e2 06 3d ff b1 47 bf
       -0.32623762 -0.45945135 0.032930393 -0.78005975
000070 31 75 c3 bf 00 46 31 bf ac 9f 5c c0 47 a3 22 bf
       -1.5270139 -0.69247437 -3.4472456 -0.6353039
000080 6c f9 0a 3f 3f 31 ab be 34 0b 82 3e b7 01 98 be
       0.5428684 -0.3343601 0.25399172 -0.29688808
000090 ef 2f 47 c0 72 57 5a c0 0a f9 96 bf ae 3c 37 bf
       -3.1123006 -3.4115872 -1.1794751 -0.71576965
0000a0 f2 bc 81 3e d3 cb 2d c0 47 f9 2b 3e fa 23 c0 be
       0.25339466 -2.7155654 0.1679431 -0.37527448
0000b0 3d 9f c2 bf 59 9b 92 bc fd af 33 bf 0d 0d 47 c0
       -1.5204846 -0.017896341 -0.7019041 -3.1101716
0000c0 57 90 97 be ef 23 74 3d 5f 06 dc 3c f0 e3 cc 3e
       -0.2960231 0.05960458 0.026858507 0.40017653
0000d0 82 d7 7c 3e d4 dc 38 c0 ec cd ec bf 1c f6 21 c0
       0.24691585 -2.8884783 -1.8500342 -2.5306463
0000e0 fe 4a 7b c0 21 c1 80 c0 d3 5d 7d 3d 5e 47 33 be
       -3.9264522 -4.0235753 0.061857056 -0.17507693
0000f0 46 82 f3 3e 4b 0b 8f 3e ba 65 ce 3d 5a 4b 4c 3c
       0.47560328 0.27938303 0.100779966 0.012469137
000100 81 55 a3 bf 52 17 28 c0 24 68 22 bf b6 7d 80 c0
       -1.2760469 -2.6264234 -0.63440156 -4.0153456
000110 d1 7d 8c bf da bd 26 3f e9 67 2f 3e 47 4e 31 3f
       -1.0975896 0.6513344 0.17129482 0.69260067
000120 60 f5 b4 3e 5d 53 5f 3f b3 5c b6 3c 7b 3e 3a c0
       0.35343456 0.8723658 0.022261 -2.9100635
000130 f2 9b f7 bf 0a 10 16 c0 18 14 71 3f dd c0 1c c0
       -1.9344466 -2.344729 0.94171286 -2.4492714
000140 93 6f 7b bf 59 1a 7b be e0 40 cd bf dd 30 3d bf
       -0.98217124 -0.2452177 -1.6035423 -0.73902684
000150 f7 66 22 be 05 4a 18 bf 6b b1 31 c0 dd b2 13 bc
       -0.1585959 -0.59487945 -2.7764537 -0.009014812
000160 9c 83 a3 bf e7 ee 42 c0 32 4a 7d 3e b1 f8 df bf
       -1.2774539 -3.0458314 0.24735335 -1.749777
000170 2a fc 8b bf c6 fa 2b 3f bf 89 f1 3e 00 bb f3 bf
       -1.0936329 0.67179525 0.47175404 -1.9041443
000180 66 14 99 bf d3 60 11 bf c6 d5 83 3f 35 bb 1a bf
       -1.195935 -0.5678837 1.0299613 -0.60441905
000190 db 53 0e c0 6f 91 b4 3d 73 a9 17 c0 5d f0 f5 bf
       -2.2238681 0.08816802 -2.3697174 -1.9213978
0001a0 f8 40 b2 bf f8 c3 2c c0 4c 6c 3b c0 f0 df a9 bf
       -1.3926077 -2.699461 -2.928485 -1.3271465
0001b0 66 31 0c 3e ad 15 66 3e 5a c3 c6 3c ab 52 0d 3f
       0.13690719 0.22469206 0.024263073 0.55204266
0001c0 01 53 37 bf 02 c9 6c c0 58 30 af be 11 31 3d bf
       -0.7161103 -3.6997685 -0.3421657 -0.73902994
0001d0 18 b2 03 3f 03 18 22 bf 8d 79 df bf 06 c0 fb be
       0.51443624 -0.6331789 -1.7458969 -0.4916994
0001e0 2b 14 0f bc 80 e1 6a bf 21 cd f1 bd 0c 1e 5d c0
       -0.008732836 -0.91750336 -0.11806703 -3.454959
0001f0 b2 c7 25 bf ea 38 1d 3e 82 79 2d 3f 31 dc 45 c0
       -0.64757836 0.15353742 0.6776353 -3.0915644
000200 a0 60 ae 3e b0 1d d2 bf 6f 83 32 bf fc 75 ad 3e
       0.34058094 -1.641531 -0.697318 0.33879077
000210 ad 5f 23 be 62 6f 1b bf d2 9b 34 c0 5d c1 17 c0
       -0.15954466 -0.6071683 -2.8220105 -2.371177
000220 b3 5b d5 bf 0e fe a9 bf 92 26 b4 bf c6 b5 76 bf
       -1.6668609 -1.3280656 -1.4074271 -0.96371114
000230 a2 94 b2 3d a3 b9 2b bd 8c 6c 9d be 56 0b 80 bf
       0.08719756 -0.041925084 -0.30746877 -1.000346
000240 cf 43 59 3e 59 75 5a bf f6 02 16 c0 05 90 63 bf
       0.21217273 -0.8533531 -2.3439307 -0.8889163
000250 cf 79 8a 3e dc 7f 1e c0 03 4b 1b c0 c6 87 4f 3f
       0.27046058 -2.476554 -2.4264534 0.8106655
000260 ca a7 44 bb 93 d3 f6 bf 44 e0 04 c0 53 e0 74 bf
       -0.0030007237 -1.9283317 -2.076188 -0.9565479
000270 aa fb a8 bf 28 2f 3d be 5c 3d 05 bf 5d 33 1c bf
       -1.3201802 -0.1847502 -0.5204675 -0.61015874
000280 a4 2d 24 3e 1a cc a7 3d 35 81 28 c0 6f 93 39 c0
       0.16033036 0.08193226 -2.6328862 -2.8996236
000290 24 3c 66 be 6d 9a b3 bf d6 17 63 3f 22 71 89 bf
       -0.2248388 -1.4031502 0.88708246 -1.073765
0002a0 a4 ab 5c 3f bc 5a ba bf d0 8f f5 bf 19 50 f6 be
       0.861994 -1.455894 -1.9184513 -0.48107985
0002b0 97 0d 68 3e 32 db 08 c0 17 ef f1 3c 71 3f 12 c0
       0.22661434 -2.1383786 0.029532952 -2.2851222
0002c0 a0 d8 3b c0 2a 0c 6a 3a 62 6e 0c bf a4 d5 69 c0
       -2.9350967 0.0008928204 -0.5485593 -3.6536646
0002d0 7c 66 08 be a1 3d dd 3d 8a 06 e6 3e c9 39 5f be
       -0.13320345 0.108027704 0.44926864 -0.21799387
0002e0 cd 7d fe bf e6 8a 18 c0 6c d7 fe 3e c8 e8 b1 bf
       -1.9882141 -2.3834777 0.4977373 -1.3899164
0002f0 65 2f 02 c0 41 c9 0a 3f 40 1e 08 c0 09 5a 11 3f
       -2.0341427 0.5421334 -2.1268463 0.5677801
000300 e5 19 7d be cd 50 bd bf 28 32 5f c0 76 24 f2 3e
       -0.24716909 -1.4790283 -3.4874363 0.47293442
000310 85 94 f2 3e c6 f6 24 bf 2d 12 8a bf b0 38 6c bf
       0.47378936 -0.64439046 -1.0786797 -0.92274
000320 35 d5 9d bf 4e c4 8f bf 26 ca 6e be 55 58 59 3e
       -1.2330691 -1.1231782 -0.23319301 0.21225102
000330 4f 70 be 3e 89 fd a7 be a0 ef 12 be df b0 7e c0
       0.3719506 -0.3281062 -0.14349222 -3.9795454
000340 99 81 90 bf e0 cc 21 be 29 8d 26 be c2 aa e8 bf
       -1.128955 -0.1580081 -0.16264786 -1.8177111
000350 d8 f8 dd bf 58 87 54 be 96 6c d2 be 0d d5 b9 bf
       -1.7341566 -0.20754755 -0.4109847 -1.4518143
000360 ec 33 04 3e 40 66 66 3e a0 ee df be 9b 5a 0b bf
       0.12910432 0.22499943 -0.43736744 -0.5443513
000370 1c f8 c5 bf 56 5b 5c bf 10 8f 18 bf c5 b5 5c c0
       -1.5466342 -0.8607687 -0.59593296 -3.4485943
000380 dd 6e fa 3e b9 28 46 c0 86 27 7f 3d 9d 8a 4a c0
       0.48912707 -3.0962355 0.06229355 -3.1647103
000390 1a bb e0 bf 38 34 32 bf 08 24 6c bf 89 27 57 3e
       -1.7557099 -0.6961093 -0.9224248 0.21011175
0003a0 ca d5 27 bf 8e a2 97 3e 9a 59 5b c0 25 cd 22 c0
       -0.6556059 0.29616207 -3.4273438 -2.543771
0003b0 b3 9f 87 be e3 7c 5d be be 6d f4 be fb 7b 42 3e
       -0.26489028 -0.21629672 -0.47739977 0.18992607
0003c0 93 af 8d bf 17 3a 87 3f 5e f2 0f bf 69 bd 64 c0
       -1.1069206 1.0564603 -0.562292 -3.5740607
0003d0 39 f9 0c c0 70 fc cb bf a3 19 37 3e ac 72 33 3e
       -2.2027113 -1.5936413 0.17880873 0.17524213
0003e0 98 ae c7 bf b2 95 a4 bf 4f 30 08 be 8c c8 7a be
       -1.5600157 -1.2858183 -0.13299678 -0.24490565
0003f0 b5 33 b7 be 2f 8e 8a 3e 01 18 61 c0 9a 83 13 bf
       -0.35781637 0.27061602 -3.51709 -0.57622683

l3.bias f4 [34]
000000 66 58 55 be 69 af 01 3f 28 95 a1 3e 6c a0 00 bf
       -0.20834503 0.5065828 0.3155911 -0.50244784
000010 63 5c d5 3e 17 f1 3b be d2 61 db be 95 fd a4 3d
       0.41672048 -0.18353687 -0.42848068 0.080561794
000020 9e b1 de 3e 15 42 58 3e 74 39 7d be c1 83 01 3e
       0.43494886 0.21118958 -0.24728948 0.12647916
000030 7f e6 be 3e e3 c2 10 be 3d 8e 58 3d e1 21 90 be
       0.3728523 -0.14136843 0.052870024 -0.28150848
000040 df d5 33 be c6 cd 26 bf af 7f bb bd 18 0d 0e bf
       -0.17562054 -0.65157735 -0.09155213 -0.5548873
000050 63 6c 68 3e 0e 33 9a 3e 34 2d 17 bf a6 a3 88 3d
       0.22697596 0.30117077 -0.5905335 0.066718385
000060 3f 54 14 be e1 b8 53 3e 64 73 f2 be 6b 09 ab be
       -0.14485262 0.20675994 -0.4735366 -0.33405623
000070 09 f3 61 3e 4a ae 01 be a9 0b e9 3e d9 c6 1c bf
       0.22065367 -0.12664142 0.45516708 -0.6124092
000080 49 af b3 be 7f 2c 70 3e
       -0.3509467 0.23454474
